params/model.pth (torch, 251411 bytes, 10 tensors)

conv1.weight f4 [6, 3, 5, 5]
-0.102975644 0.13501363 -0.05067962 0.058430273 0.2238112 -0.07698692 0.38204008 -0.15919745
-0.32548326 0.12934835 0.04442064 0.4532559 -0.06994261 -0.50655246 0.18077934 0.1372832
0.3034216 -0.19069627 -0.45326883 0.30821684 -0.13105457 0.10136367 -0.20255402 -0.16060273
0.18652116 -0.11474916 0.12797992 -0.13810323 -0.20002393 -0.01542608 0.097102426 0.37938085
-0.2109866 -0.5138631 0.004012362 0.25044665 0.55437493 -0.24307328 -0.5861152 0.2204919
0.111310616 0.3364668 -0.32710123 -0.48796007 0.1596454 0.08478748 0.064358644 -0.13435915
-0.19405377 0.15498722 0.046123628 0.116272494 -0.067558676 -0.2328046 -0.12135102 0.1965635
0.4317277 -0.13160925 -0.38367054 0.069759145 0.1337022 0.43987432 -0.19053653 -0.53924644
0.03239234 0.25747097 0.43304378 -0.1467226 -0.2757642 0.17682025 0.059456397 0.2317752
-0.08504673 -0.16739812 0.11368491 -0.022147669 0.077395506 -0.06787348 -0.08527858 -0.08324179
-0.047455315 0.0034317528 -0.008856689 -0.06550415 -0.18450631 -0.06532783 0.006324059 0.077059224
0.038977165 -0.05534702 -0.053459723 0.05610187 -0.013337373 0.047144577 0.0044093435 -0.106663294
0.09243749 0.08136251 -0.010104786 0.10575338 -0.059820212 -0.08233589 -0.090072304 -0.28106055
-0.3438722 -0.101523206 0.015477205 -0.04987876 0.048106406 -0.14356455 -0.2452539 0.0071520023
0.041962326 0.0640885 -0.06663255 -0.15088677 -0.15939271 -0.08308562 0.04231777 0.023477793
-0.12232737 -0.17109488 -0.11874789 0.09412262 -0.012173738 0.20291899 0.31500223 0.22006293
0.03133013 -0.09242951 0.10144438 0.2479015 0.3955656 0.15083118 0.071147285 -0.062203135
0.074974895 0.26167434 0.2955416 0.189373 -0.08456261 0.055368003 0.3048782 0.26773292
0.13361402 0.065611206 0.028638702 0.11735288 0.20683892 0.21725251 0.0938428 0.16052844
0.13248555 0.11776171 -0.050054137 -0.054252125 -0.14253272 -0.24983133 -0.080930084 -0.009521256
-0.20552199 -0.47206548 -0.54658586 -0.39625242 -0.25050944 0.074230276 0.11520281 0.019839047
0.069326624 -0.12650725 0.19586651 0.33459735 0.37838295 0.3706244 0.19237638 0.14906652
0.16140315 0.26725766 0.046829693 -0.07119875 0.10893599 -0.09678148 -0.13479505 0.01412848
0.048026394 -0.24567202 -0.42341778 -0.4002906 -0.3647812 -0.03656473 0.06528183 -0.0020007922
0.09053823 -0.056660764 -0.041425124 0.15379857 0.26528835 0.39826217 0.19184053 0.10667954
0.020930128 0.050808884 0.28799194 0.06497489 0.09589064 -0.037044477 -0.13596825 -0.06406295
0.024521766 0.19024295 -0.21304065 -0.32419333 -0.42910704 -0.12674913 -0.17447215 -0.10140709
0.06834811 0.097712375 -0.03999033 -0.03300108 0.2059842 0.30829787 0.2868013 0.14320165
0.003454161 0.30770487 0.2579387 0.47416952 0.39759415 0.26972035 0.01893713 0.02191716
0.17556635 0.2197042 0.38131407 -0.0016200704 0.074310936 0.017540542 0.20770676 0.14392577
-0.029413436 0.07182039 -0.1547169 -0.033673793 0.17117444 -0.21616739 -0.16114786 -0.36852816
-0.31557938 -0.09799921 -0.29096028 0.0023274743 -0.11882452 -0.0745242 -0.16373567 -0.37329477
00000000: e5e4 d2bd 0341 0a3e 6f95 4fbd 9554 6f3d
00000010: c32e 653e 51ab 9dbd c29a c33e a804 23be
00000020: bea5 a6be e573 043e 6bf2 353d 2811 e83e
00000030: 123e 8fbd 6cad 01bf 381e 393e f893 0c3e
00000040: 135a 9b3e e245 43be da12 e8be 99ce 9d3e
00000050: 2b33 06be c197 cf3d 526a 4fbe 0b75 24be
00000060: 67ff 3e3e 9c01 ebbd 2b0d 033e ef6a 0dbe
00000070: 13d3 4cbe abbd 7cbc a3dd c63d 353e c23e
00000080: df0c 58be 888c 03bf 227a 833b 8b3a 803e
00000090: 84eb 0d3f 34e8 78be a50b 16bf a1c8 613e
000000a0: d2f6 e33d 6045 ac3e d079 a7be e7d5 f9be
000000b0: 157a 233e 0fa5 ad3d 77ce 833d 7295 09be
000000c0: 08b6 46be f8b4 1e3e 21ec 3c3d 4620 ee3d
000000d0: 345c 8abd 5464 6ebe e286 f8bd f147 493e
000000e0: 6a0b dd3e 93c4 06be 7770 c4be e2dd 8e3d
000000f0: 3be9 083e 3537 e13e 021c 43be 0e0c 0abf
00000100: d5ad 043d 3cd3 833e eab7 dd3e 733e 16be
00000110: f730 8dbe 5e10 353e 8d88 733d 7a56 6d3e
00000120: fb2c aebd 6a6a 2bbe a2d3 e83d 076f b5bc
00000130: 8981 9e3d 4001 8bbd 89a6 aebd ac7a aabd
00000140: 8160 42bd 42e7 603b a51b 11bc 0a27 86bd
00000150: 39ef 3cbe 99ca 85bd 0d3a cf3b 3ad1 9d3d
00000160: 85a6 1f3d 8fb3 62bd 95f8 5abd 13cb 653d
00000170: ff84 5abc ac1a 413d 417c 903b 4972 dabd
00000180: de4f bd3d 63a1 a63d 8b8e 25bc 3a95 d83d
00000190: 0a06 75bd b89f a8bd d477 b8bd 2be7 8fbe
000001a0: 0410 b0be 66eb cfbd 1a94 7d3c ac4d 4cbd
000001b0: 390b 453d 9602 13be d723 7bbe 585b ea3b
000001c0: b0e0 2b3d d540 833d a576 88bd 1082 1abe
000001d0: d837 23be cb28 aabd 6655 2d3d 8054 c03c
000001e0: c686 fabd 7f33 2fbe 1832 f3bd 5cc3 c03d
000001f0: 5c74 47bc ffc9 4f3e f947 a13e 2d58 613e
00000200: 0654 003d af4b bdbd 12c2 cf3d e4d9 7d3e
00000210: 9387 ca3e 7d73 1a3e abb5 913d b7c8 7ebd
00000220: 708c 993d 2efa 853e 3b51 973e ffea 413e
00000230: 292f adbd 8fc9 623d ff18 9c3e 4a14 893e
00000240: 1dd2 083e 2b5f 863d b69b ea3c b556 f03d
00000250: 95cd 533e 7177 5e3e a730 c03d 9161 243e
00000260: 4baa 073e 0d2d f13d 9105 4dbd 7a37 5ebd
00000270: 19f4 11be c9d3 7fbe acbe a5bd 0bff 1bbc
00000280: 5b74 52be 91b2 f1be 0ded 0bbf 99e1 cabe
00000290: c642 80be 0b06 983d 73ef eb3d 7f85 a23c
000002a0: 1efb 8d3d 1e8b 01be 3b91 483e 5850 ab3e
000002b0: 69bb c13e 7bc2 bd3e 50fe 443e e5a4 183e
000002c0: de46 253e ffd5 883e 7ed0 3f3d a6d0 91bd
000002d0: d519 df3d 5e35 c6bd b707 0abe 247b 673c
000002e0: 53b7 443d 7291 7bbe 37ca d8be e4f2 ccbe
000002f0: 9ac4 babe e6c4 15bd 7bb2 853d b91f 03bb
00000300: 1c6c b93d 1e15 68bd 64ad 29bd 5f7d 1d3e
00000310: e0d3 873e 05e9 cb3e d871 443e cd7a da3d
00000320: a975 ab3c fa1c 503d ae73 933e 8e11 853d
00000330: 5062 c43d f3bb 17bd 433b 0bbe 7033 83bd
00000340: dfe1 c83c 0ccf 423e 5427 5abe abfc a5be
00000350: ebb3 dbbe 86ca 01be d4a8 32be 85ae cfbd
00000360: 18fa 8b3d 6d1d c83d e6cc 23bd 242c 07bd
00000370: 86ed 523e 38d9 9d3e 9fd7 923e 74a3 123e
00000380: 355f 623b 7e8b 9d3e 8b10 843e 59c6 f23e
00000390: 7691 cb3e c918 8a3e 0a22 9b3c 9e8b b33c
000003a0: aac7 333e 23fa 603e 993b c33e 8b58 d4ba
000003b0: 5530 983d 2fb1 8f3c 15b1 543e 4761 133e
000003c0: 72f4 f0bc 9216 933d 1b6e 1ebe 88ed 09bd
000003d0: 5a48 2f3e fc5a 5dbe f203 25be b9af bcbe
000003e0: 9f93 a1be cfb3 c8bd bff8 94be 8a88 183b
000003f0: 455a f3bd 25a0 98bd 53aa 27be 7e20 bfbe

conv1.bias f4 [6]
-0.20119558 0.30557188 -0.21537845 -0.51051354 -0.34189028 0.16974463
00000000: 3706 4ebe eb73 9c3e 2b8c 5cbe 04b1 02bf
00000010: 3e0c afbe 89d1 2d3e

conv2.weight f4 [16, 6, 5, 5]
0.020078624 -0.05598719 0.005863574 -0.14503318 0.11934436 0.04673057 0.037626717 0.022309935
0.096306615 0.23165408 0.0690369 0.09121842 0.0063730683 0.30379996 -0.012540481 0.004615767
-0.0017009119 -0.0031931675 -0.03620983 -0.23697704 -0.11417119 -0.22272505 -0.24205828 -0.36648253
-0.38004217 -0.07962345 0.046957973 -0.05249146 0.038380943 -0.00880024 -0.11394353 0.04565039
0.0032653143 -0.015243107 -0.07984363 -0.02518834 -0.00012812838 -0.116464436 -0.14783722 0.0064812535
0.011852138 0.028768694 -0.11454068 -0.069105946 0.060682345 0.017105274 0.030802902 0.10137735
0.19033374 0.23447207 -0.09796657 -0.18529257 -0.11621553 -0.100449294 -0.07350158 -0.13735536
-0.15013576 -0.18396693 -0.13366559 -0.0345479 0.080295846 -0.091930486 -0.049600504 0.004986799
0.22270755 -0.020887364 0.052146845 0.22964874 0.23048034 0.19443388 0.07465179 0.18139227
0.2532862 0.107209936 0.058005236 0.095698506 0.08128831 -0.055885553 0.050012603 0.20458813
-0.08119069 0.026248882 -0.0732073 0.09602043 0.082799435 0.034400273 0.060335457 0.027539013
0.10996765 -0.11070586 0.057522215 0.10580108 0.05850501 0.07788967 -0.03750268 -0.10769305
-0.15625028 -0.07372224 -0.23605199 -0.13553286 -0.04527596 0.02666197 -0.016111119 -0.0757004
-0.03738535 0.07399311 0.003989305 -0.02549598 0.019601947 0.020774057 -0.12100254 -0.016961595
-0.08491363 0.025598025 -0.061542127 -0.12039922 0.031368133 -0.0384591 0.0030337092 -0.050169807
-0.0602539 -0.017856203 -0.097106114 0.0004671041 -0.10045147 0.06006591 0.0968676 0.10983682
0.06754985 0.1125333 0.017334575 -0.027828798 0.010168836 0.034487657 -0.007182333 -0.11537777
-0.07278401 0.003928976 0.12561372 -0.081640095 -0.046683922 0.027350098 0.1975869 0.058141507
-0.21687537 -0.048507888 0.1259188 -0.043073993 -0.05158057 -0.07127404 0.13425872 -0.121886596
-0.017311115 -0.00042947527 -0.08157638 0.083803855 -0.110933505 0.012854238 -0.1197513 0.10005321
-0.029339038 0.0052534677 0.14298892 -0.17220834 0.2863758 0.018438451 0.12804665 0.060476214
-0.21726592 0.34219083 -0.06692939 0.026631571 -0.10311421 -0.29655853 0.19761851 0.09717256
0.21845113 0.2415355 0.25401238 0.19143945 -0.017173933 0.039661404 -0.072429724 0.02066732
0.08814277 -0.07557814 -0.08120804 -0.018106466 0.054817785 0.013178306 -0.083498135 -0.0036985844
-0.07070818 -0.10836638 -0.18694583 -0.090317704 -0.02357156 -0.17608336 -0.018329225 -0.1650442
-0.039479874 -0.04643962 -0.1670229 -0.15350772 -0.11885674 0.061995924 0.087971374 0.010519566
0.017052017 -0.022947062 0.006821045 0.042099886 0.023548556 -0.1747243 -0.12819809 0.0136680575
0.109440826 0.13510749 0.10574697 -0.039005365 0.036936786 0.011532043 0.05913039 0.07405219
-0.05768143 0.0066258945 0.0111274 -0.07122646 -0.001976196 0.05720734 -0.014826566 0.015625162
-0.017815545 -0.115787596 0.025400402 -0.010909742 -0.0050731427 0.054095242 -0.11532895 0.018830476
-0.0056015663 -0.079428256 0.09480435 -0.033695385 0.0044262917 0.01245423 0.019281408 0.0678329
0.004687348 -0.18360554 0.0058748964 -0.0022703484 -0.022579426 -0.044526007 -0.0063921656 0.1599983
00000000: ed7b a43c d352 65bd 3923 c03b 9483 14be
00000010: d16a f43d 8e68 3f3d 791e 1a3d 53c3 b63c
00000020: 673c c53d ba36 6d3e 3863 8d3d b9d0 ba3d
00000030: 2cd5 d03b ab8b 9b3e 9776 4dbc dc3f 973b
00000040: 22f1 deba 7644 51bb c250 14bd 1caa 72be
00000050: 96d2 e9bd 0912 64be 20de 77be 99a3 bbbe
00000060: e394 c2be 9f11 a3bd 0157 403d 4901 57bd
00000070: 5635 1d3d e22e 10bc 3a5b e9bd e7fb 3a3d
00000080: e2fe 553b 3abe 79bc 0f85 a3bd c757 cebc
00000090: 335a 06b9 e884 eebd a462 17be b260 d43b
000000a0: 782f 423c 53ac eb3c 4e94 eabd 6b87 8dbd
000000b0: 0d8e 783d 5c20 8c3c 5e56 fc3c ee9e cf3d
000000c0: d9e6 423e 7219 703e b2a2 c8bd 56bd 3dbe
000000d0: 6802 eebd 5cb8 cdbd ff87 96bd e2a6 0cbe
000000e0: 30bd 19be d461 3cbe a2df 08be 1982 0dbd
000000f0: 2672 a43d 0d46 bcbd e629 4bbd 4d68 a33b
00000100: 730d 643e fa1b abbc ee97 553d 0a29 6b3e
00000110: 0a03 6c3e ad19 473e 0ae3 983d e5be 393e
00000120: bbae 813e e290 db3d e696 6d3d 94fd c33d
00000130: 7c7a a63d 40e8 64bd 04da 4c3d 8d7f 513e
00000140: 4e47 a6bd e507 d73c b5ed 95bd 5ca6 c43d
00000150: c092 a93d 4de7 0c3d 5022 773d 7f99 e13c
00000160: b836 e13d c1b9 e2bd 6a9c 6b3d 3dae d83d
00000170: f3a2 6f3d 9f84 9f3d 699c 19bd 2c8e dcbd
00000180: 1300 20be b0fb 96bd 9db7 71be 20c9 0abe
00000190: 4973 39bd 346a da3c 77fb 83bc d008 9bbd
000001a0: 6121 19bd b389 973d b7b8 823b f2dc d0bc
000001b0: 4394 a03c 5b2e aa3c 2ed0 f7bd 0bf3 8abc
000001c0: 32e7 adbd f3b2 d13c 9913 7cbd de93 f6bd
000001d0: df7b 003d 4a87 1dbd 32d1 463b db7e 4dbd
000001e0: cbcc 76bd 2c47 92bc 92df c6bd a7e5 f439
000001f0: 80b9 cdbd ac07 763d 8562 c63d 20f2 e03d
00000200: 9357 8a3d dc77 e63d 3d01 8e3c 38f9 e3bc
00000210: 319b 263c ee42 0d3d c759 ebbb 2e4b ecbd
00000220: c80f 95bd a4be 803b e2a0 003e ec32 a7bd
00000230: a437 3fbd 500d e03c 3854 4a3e ca25 6e3d
00000240: 9414 5ebe 35b0 46bd dcf0 003e 5b6e 30bd
00000250: 2646 53bd 20f8 91bd 1e7b 093e ae9f f9bd
00000260: 0ad0 8dbc 322b e1b9 8411 a7bd 5ba1 ab3d
00000270: 1b31 e3bd 959a 523c 2b40 f5bd b3e8 cc3d
00000280: 6c58 f0bc 4825 ac3b b06b 123e 6257 30be
00000290: d99f 923e 3c0c 973c a91e 033e e8b5 773d
000002a0: f57a 5ebe a333 af3e 4712 89bd 742a da3c
000002b0: 8b2d d3bd 85d6 97be 825c 4a3e 6802 c73d
000002c0: a7b1 5f3e 1555 773e e90d 823e b408 443e
000002d0: 59b0 8cbc ff73 223d 0956 94bd 834e a93c
000002e0: 3284 b43d b6c8 9abd 6750 a6bd 0354 94bc
000002f0: 9d88 603d d2e9 573c 1201 abbd f363 72bb
00000300: 73cf 90bd 31ef ddbd ba6e 3fbe 7df8 b8bd
00000310: 2519 c1bc 324f 34be 2c27 96bc 5901 29be
00000320: a6b5 21bd 7937 3ebd 0d08 2bbe 2131 1dbe
00000330: 2a6b f3bd 70ef 7d3d 562a b43d 425a 2c3c
00000340: acb0 8b3c 7afb bbbc 1383 df3b ee70 2c3d
00000350: e7e8 c03c edea 32be 5c46 03be fdef 5f3c
00000360: 8322 e03d 9e59 0a3e de91 d83d 17c4 1fbd
00000370: 074b 173d e5f0 3c3c b532 723d ada8 973d
00000380: 5d43 6cbd 081e d93b b34f 363c 2edf 91bd
00000390: 1183 01bb 3e52 6a3d 20eb 72bc 5700 803c
000003a0: e8f1 91bc 0c22 edbd 8114 d03c c6be 32bc
000003b0: 9b3c a6bb f992 5d3d 9631 ecbd 5f42 9a3c
000003c0: 588d b7bb 48ab a2bd c828 c23d 2c04 0abd
000003d0: 6d0a 913b d40c 4c3c 0bf4 9d3c faeb 8a3d
000003e0: 5398 993b 1703 3cbe 3482 c03b 20ca 14bb
000003f0: 7df8 b8bc e760 36bd 5f75 d1bb 98d6 233e

conv2.bias f4 [16]
-0.43073738 -0.7278029 0.53156555 1.0554367 -0.29760656 0.26897058 -0.11860887 -0.08886032
-0.09133854 -0.1672036 0.38298967 -0.53463626 0.011351142 -0.12380045 -0.17291285 0.69068366
00000000: 9c89 dcbe 4a51 3abf ae14 083f 8d18 873f
00000010: e35f 98be 83b6 893e 35e9 f2bd 66fc b5bd
00000020: b30f bbbd 6c37 2bbe 3917 c43e ecdd 08bf
00000030: 24fa 393c 178b fdbd 1110 31be a5d0 303f

fc1.weight f4 [120, 400]
-0.051841557 -0.0030551406 0.076763764 0.020940274 0.0069294195 -0.032705165 0.03362073 -0.0063636624
0.01738208 -0.03344556 -0.033012167 0.039640468 0.06064424 -0.035466895 -0.020769304 -0.050054874
0.021447545 -0.050086685 -0.118591 -0.092355475 -0.046515003 -0.04936542 -0.09045208 -0.12783296
-0.06725019 0.013360829 -0.02018887 0.060045436 0.015113278 0.017110812 -0.07772691 -0.022292625
0.04793167 0.035532672 -0.04242527 -0.007576842 0.026198065 -0.023777183 0.023752488 -0.05853941
-0.035971016 -0.017061148 -0.036488052 -0.0027639575 -0.059318002 -0.038659617 -0.011067621 -0.008706006
-0.06645483 -0.0189001 -0.018916791 0.016444838 -0.003308824 -0.055426713 -0.001998993 0.022035597
0.01277143 -0.037702706 0.020296235 0.016454492 0.029858734 -0.0062226616 -0.05745531 -0.033752795
0.012863047 0.016369866 -0.026089203 -0.029733496 0.028228639 -0.006352944 0.0077054244 0.016569255
-0.025273334 -0.024423782 -0.011316275 0.038516793 -0.057050657 0.040682025 0.008727249 0.011095451
0.030994432 -0.009885443 0.06265374 0.034623 0.05992895 0.043555804 0.07109565 0.014069203
0.04792154 -0.03195479 0.01318287 0.018570594 -0.034462955 0.042494126 -0.017832471 0.00021022437
-0.00085700775 -0.028269058 -0.01938461 0.076854065 -0.024423657 0.013537914 0.035854444 0.033665176
-0.019365663 -0.094423346 0.060324762 0.0057370286 -0.00061815267 0.002440536 -0.056005962 0.05007329
0.0046366807 -0.082966425 -0.06731448 -0.0036460266 0.016801637 -0.08682068 -0.10046107 -0.069280945
-0.021624556 -0.07840399 -0.036099464 -0.034873243 -0.09277296 -0.029837478 0.046076577 0.043022055
-0.056339927 -0.042778533 0.037458852 0.07415858 0.0030466858 0.01751267 0.04883945 0.006001084
0.061821967 -0.03219306 0.0155723775 0.057034824 0.04965941 -0.005889541 0.051488783 -0.018075658
0.0019613188 -0.031385407 0.110977635 0.05479218 0.014548893 0.018393654 -0.0490131 -0.06449977
0.06475423 0.0247991 -0.027783858 -0.06619205 -0.0007123448 0.0025646302 0.04288128 -0.0040437095
-0.038561624 -0.043447144 0.0804287 0.057520717 -0.03296393 -0.061722394 -0.028083568 0.022179937
0.0514377 -0.04859524 -0.010309237 -0.006925277 0.100868545 0.088681296 0.025386563 -0.031456787
0.011628669 -0.00993824 0.016103353 -0.027362756 0.010154551 0.0154914325 -0.021368023 0.07328159
0.041247796 0.009344667 0.014518799 0.03212883 0.010506728 -0.067246094 0.021240605 -0.01648616
-0.028033879 -0.034419574 -0.006316436 -0.028327506 -0.04369637 0.016370801 -0.060816612 -0.014268408
-0.011723525 0.03677524 -0.008722314 -0.0071095824 -0.020538481 -0.01274359 0.00091074005 -0.004976833
0.019798264 -0.029394312 -0.019407023 0.022423599 0.028277958 -0.013019278 -0.055359934 -0.025598882
0.048957303 0.017101016 -0.064789474 0.006472624 -0.086230956 -0.02145109 -0.008060419 -0.07608501
-0.06823237 0.015910244 -0.0069502383 0.034866504 0.0065342057 -0.02274362 0.050090358 0.024763957
0.04743849 0.045395333 -0.0017129469 0.053304095 0.050332844 -0.018756129 -0.018468363 -0.026445635
-0.03224538 0.036610294 -0.02595601 0.0010142172 0.007215591 0.038852587 -0.00840211 -0.023419753
-0.06571865 0.011126798 0.028968621 -0.014304758 0.044262048 -0.016203748 0.015437562 0.0069521326
00000000: d057 54bd c138 48bb 5236 9d3d f08a ab3c
00000010: 2f10 e33b daf5 05bd e4b5 093d 4586 d0bb
00000020: dd64 8e3c 36fe 08bd c437 07bd 0b5e 223d
00000030: 1866 783d bc45 11bd 6324 aabc 5706 4dbd
00000040: c3b2 af3c b227 4dbd d7df f2bd de24 bdbd
00000050: 8486 3ebd 6533 4abd f13e b9bd a5e6 02be
00000060: 78ba 89bd 61e7 5a3c 2163 a5bc 34f2 753d
00000070: af9d 773c f92b 8c3c 492f 9fbd 069f b6bc
00000080: 0054 443d b58a 113d 1fc6 2dbd 2847 f8bb
00000090: 539d d63c 5ec8 c2bc 9494 c23c 05c7 6fbd
000000a0: 5856 13bd d2c3 8bbc 7f74 15bd 8323 35bb
000000b0: 6ff7 72bd 8c59 1ebd f854 35bc a3a3 0ebc
000000c0: 7819 88bd 62d4 9abc 63f7 9abc 53b7 863c
000000d0: dbd8 58bb 1f07 63bd 8a01 03bb ff83 b43c
000000e0: 433f 513c 276e 1abd 4a44 a63c 92cb 863c
000000f0: 4e9a f43c 78e7 cbbb 4256 6bbd 5f40 0abd
00000100: 88bf 523c 191a 863c 06b9 d5bc a993 f3bc
00000110: bf3f e73c 5b2c d0bb c97d fc3b 3fbc 873c
00000120: 060a cfbc 6214 c8bc e667 39bc c9c3 1d3d
00000130: f3ad 69bd 32a2 263d bcfc 0e3c b2c9 353c
00000140: 09e8 fd3c 8ef6 21bc 9b50 803d d9d0 0d3d
00000150: 0f78 753d 9267 323d 999a 913d 8482 663c
00000160: 6049 443d 07e3 02bd f7fc 573c 5c21 983c
00000170: 0729 0dbd 520e 2e3d 6715 92bc ad6f 5c39
00000180: d1a8 60ba 8394 e7bc 79cc 9ebc aa65 9d3d
00000190: 1f14 c8bc 20ce 5d3c 1cdc 123d 7fe4 093d
000001a0: bda4 9ebc 0761 c1bd 1917 773d affd bb3b
000001b0: 860b 22ba 66f1 1f3b 8266 65bd a619 4d3d
000001c0: 4cef 973b 4dea a9bd 2ddc 89bd 2df2 6ebb
000001d0: 96a3 893c 0acf b1bd 89be cdbd 2be3 8dbd
000001e0: fb25 b1bc 4592 a0bd 08dd 13bd 3fd7 0ebd
000001f0: c0ff bdbd ba6d f4bc cbba 3c3d e537 303d
00000200: b2c4 66bd 8b38 2fbd 746e 193d 74e0 973d
00000210: e8aa 473b bb76 8f3c e00b 483d bea4 c43b
00000220: 0839 7d3d dfdc 03bd 4923 7f3c 599d 693d
00000230: aa67 4b3d 0dfd c0bb e7e5 523d 6713 94bc
00000240: 7889 003b fc8d 00bd 3e48 e33d c46d 603d
00000250: 7b5e 6e3c 4aae 963c f6c1 48bd 7518 84bd
00000260: de9d 843d 7b27 cb3c f99a e3bc b38f 87bd
00000270: a6bc 3aba 5b13 283b 48a4 2f3d 1881 84bb
00000280: cbf2 1dbd a2f5 31bd cdb7 a43d d89a 6b3d
00000290: 3005 07bd 9fd0 7cbd 830f e6bc b3b2 b53c
000002a0: 56b0 523d cd0b 47bd 13e8 28bc 6fed e2bb
000002b0: 2b94 ce3d 8a9e b53d 7bf7 cf3c d5d8 00bd
000002c0: 2c86 3e3c 00d4 22bc 2eeb 833c dc27 e0bc
000002d0: 465f 263c c7cf 7d3c fe0b afbc a914 963d
000002e0: 73f3 283d 601a 193c 42e0 6d3c 8599 033d
000002f0: 6924 2c3c 52b8 89bd c700 ae3c fc0d 87bc
00000300: 4ea7 e5bc 8afb 0cbd 1bfa cebb 160f e8bc
00000310: f7fa 32bd 0f1c 863c d71a 79bd 0ac6 69bc
00000320: 0714 40bc a2a1 163d 09e8 0ebc 80f7 e8bb
00000330: 5140 a8bc 7eca 50bc bbbe 6e3a b314 a3bb
00000340: f82f a23c 57cc f0bc 7afb 9ebc b2b1 b73c
00000350: 2da7 e73c cf4e 55bc 19c1 62bd bfb4 d1bc
00000360: 7487 483d 6e17 8c3c 58b0 84bd 4e18 d43b
00000370: db99 b0bd 32ba afbc d90f 04bc 75d2 9bbd
00000380: 6abd 8bbd 3356 823c d3be e3bb 2ed0 0e3d
00000390: e41c d63b d450 babc 8c2b 4d3d c8dd ca3c
000003a0: dd4e 423d 75f0 393d f684 e0ba 6555 5a3d
000003b0: d029 4e3d 74a6 99bc f74a 97bc 84a4 d8bc
000003c0: bb13 04bd adf4 153d b3a1 d4bc 7bef 843a
000003d0: c470 ec3b e423 1f3d 01a9 09bc c8da bfbc
000003e0: 8097 86bd 2c4d 363c 9a4f ed3c 815e 6abc
000003f0: 1f4c 353d b9bd 84bc d4ed 7c3c b7ce e33b

fc1.bias f4 [120]
0.06860445 -0.044447873 -0.008115749 0.18289639 -0.042628434 0.028193206 0.16893849 -0.037374806
0.02644738 0.09210625 0.021801079 -0.009122142 -0.0151155265 -0.041698206 -0.1013943 0.0028907815
-0.027716199 -0.012141176 -0.029253524 -0.062420644 -0.053420667 -0.012669277 0.059242565 0.052473374
-0.15746662 0.0037703102 -0.010744089 0.033728305 0.29973137 0.05105702 0.0381321 -0.1271968
0.003107228 -0.009637184 -0.100606956 0.0401724 0.039057672 0.12560001 -0.12537841 -0.039118312
0.12201061 -0.038105324 -0.020896055 -0.012766326 0.07084365 0.029470066 -0.032909796 0.006079689
-0.12602955 0.08670427 0.025400441 0.054032948 0.02525012 -0.023904609 0.26637122 -0.032588776
-0.026388174 -0.0893609 -0.22019899 -0.010552679 0.2892201 -0.07713818 0.032763787 -0.07827195
-0.00037702167 -0.042334985 -0.041443042 -0.105199836 -0.03206747 0.086644985 0.03653515 0.116768874
0.13700113 0.01153407 0.09074129 -0.017375005 0.06799953 0.061695598 -0.023250323 -0.008140438
0.04501535 0.012328694 0.13230118 0.1060213 0.009706432 0.010910857 0.06442272 0.048930645
0.033218775 0.11110266 -0.051976625 0.035759978 0.013843796 0.0009403316 0.14743406 0.08168281
0.13765934 0.16398054 0.0598083 0.09186472 -0.108352005 -0.025396785 -0.038427908 0.084020704
-0.07508046 -0.01820998 0.103484996 0.077106714 0.12641786 0.04441013 0.0052378713 -0.17621301
-0.030154938 -0.012044108 0.016872771 -0.014446714 0.011825861 0.0099638095 -0.034614418 0.11960097
00000000: 7d80 8c3d f90e 36bd ebf7 04bc 3149 3b3e
00000010: 279b 2ebd 70f5 e63c 36fe 2c3e 5316 19bd
00000020: 2da8 d83c 34a2 bc3d 2d98 b23c 0975 15bc
00000030: 1da7 77bc bdcb 2abd d1a7 cfbd 4473 3d3b
00000040: 150d e3bc c8eb 46bc 16a5 efbc caac 7fbd
00000050: a1cf 5abd cd92 4fbc 55a8 723d 52ee 563d
00000060: ee3e 21be 4f17 773b fa07 30bc b126 0a3d
00000070: 6476 993e 2a21 513d 6830 1c3d e13f 02be
00000080: a3a2 4b3b 48e5 1dbc 050b cebd d18b 243d
00000090: f0fa 1f3d 4a9d 003e 3363 00be 863a 20bd
000000a0: b3e0 f93d 5414 1cbd 342e abbc da29 51bc
000000b0: 7a16 913d 356b f13c 6ccc 06bd 2138 c73b
000000c0: e40d 01be 0292 b13d 9614 d03c a751 5d3d
000000d0: 57d9 ce3c 99d3 c3bc cf61 883e cf7b 05bd
000000e0: 032c d8bc d902 b7bd d87b 61be 25e5 2cbc
000000f0: a814 943e 9ffa 9dbd 5233 063d 0b4d a0bd
00000100: feaa c5b9 7367 2dbd 2ec0 29bd 0373 d7bd
00000110: 2e59 03bd ed72 b13d e2a5 153d 8524 ef3d
00000120: 064a 0c3e 65f9 3c3c 92d6 b93d 0756 8ebc
00000130: 5643 8b3d 86b4 7c3d 7677 bebc 795f 05bc
00000140: 0462 383d 4afe 493c f679 073e b221 d93d
00000150: ba07 1f3c 73c3 323c 0ff0 833d 806b 483d
00000160: 6910 083d cb89 e33d 71e5 54bd 0e79 123d
00000170: 17d1 623c 9680 763a f4f8 163e 5149 a73d
00000180: 92f6 0c3e 84ea 273e 8cf9 743d 9223 bc3d
00000190: a8e7 ddbd eb0c d0bc 9566 1dbd 0c13 ac3d
000001a0: c9c3 99bd 192d 95bc f1ef d33d 20ea 9d3d
000001b0: af73 013e 65e7 353d 73a2 ab3b 2f71 34be
000001c0: 7d07 f7bc a654 45bc c438 8a3c e9b1 6cbc
000001d0: 42c1 413c 3f3f 233c d9c7 0dbd 5af1 f43d

fc2.weight f4 [84, 120]
0.029983602 0.024704292 0.045550346 -0.047827177 0.02571199 0.045774274 0.066537134 0.090245105
0.07699109 0.10676707 0.013429508 0.08074053 0.023590716 0.057165567 -0.052379183 -0.038911447
0.008707611 0.105981 0.03167767 -0.14566429 0.013247537 -0.07526589 0.1147852 -0.17393978
-0.024609318 0.02115619 0.020066496 -0.073871516 0.15469241 -0.01868556 -0.0042948476 -0.01890402
-0.07124563 -0.024211513 -0.04084907 0.14613163 0.00017032246 -0.05219171 -0.052279904 -0.0072413683
-0.017785126 0.06799725 -0.095993705 -0.10997652 0.029494906 0.04193332 -0.04257883 0.032897566
-0.10235287 -0.022159038 0.005714921 0.13152988 0.11474844 -0.10207733 -0.018495731 -0.039202932
-0.068585984 0.017543357 -0.12436798 0.064582914 0.07232622 0.0060369764 -0.048592877 0.024285419
0.07502842 -0.09218515 0.11551539 -0.019152781 0.021999614 0.07498346 -0.06665963 0.093943976
0.09334084 0.058652867 0.035139434 -0.07540929 -0.004779283 -0.06936427 0.05689511 -0.00065300026
-0.03749401 0.0626001 0.16928586 -0.038100917 0.003406563 0.0446624 -0.12330693 0.03510729
-0.02034639 0.0011857102 -0.033092618 -0.04461031 0.0916971 0.058194574 0.06388307 0.048111394
0.13288513 0.13540538 -0.05574082 -0.022349581 -0.052652046 0.019731728 -0.053354017 0.055766713
-0.05998726 -0.08401912 0.0128270425 0.0465672 0.08651802 0.11132424 -0.049958136 -0.11631444
0.02839936 -0.08617023 -0.015865237 -0.08266042 0.06052164 0.003927994 0.03331102 -0.05960922
-0.052090112 -0.011330078 0.08671449 -0.019372799 0.03600109 -0.049542196 0.0134652015 0.051289685
-0.069401994 0.012834457 -0.04158926 0.024232188 0.03205213 -0.025839059 0.04399622 0.008223133
0.084014945 0.02623103 -0.037537664 -0.06299723 -0.044517335 -0.08462443 -0.06850886 -0.07140107
-0.0767017 0.028552506 0.019568793 -0.07874041 0.108304664 -0.07777306 0.010694972 -0.057684753
-0.051687717 0.0011514737 0.05504529 0.08941401 0.073941275 0.064915724 0.026367951 0.012683359
-0.058251943 0.041169837 0.022463512 -0.08232785 0.06364649 -0.06871119 -0.0759476 -0.081153505
0.014557668 0.04370671 0.018974932 0.10919678 -0.050373096 -0.077279605 0.09057862 -0.061521858
-0.029284032 -0.07488233 -0.081983685 0.007321705 0.09349987 -0.008903809 -0.060244977 -0.09551023
-0.07270799 -0.015420774 -0.061858766 -0.015751239 -0.047768746 0.099414304 -0.087257214 0.04597491
0.00567912 0.023569252 -0.017957423 0.03191381 -0.047174186 0.028977329 0.04241834 -0.011836216
-0.07563594 0.029158201 0.0804557 -0.07263958 0.0751014 0.028550275 -0.03811573 0.027762959
-0.082699835 0.021319842 0.049307406 0.02244235 0.08786925 0.06326855 -0.070970386 -0.024360593
0.013320352 -0.04618413 -0.06485632 0.0034672853 -0.009871058 -0.030903233 0.039003935 0.037845664
-0.009580239 0.018953102 0.0053774454 0.004079407 0.092206225 0.08327088 -0.07371262 -0.058345124
-0.08293488 0.05541092 0.033950448 -0.00038846376 0.08021209 0.10015982 -0.0332025 -0.048240818
0.07448619 -0.014054557 0.06667021 -0.04701454 0.06944813 0.053345226 0.04993255 -0.06778822
0.056754615 -0.043418605 -0.018734869 0.02816383 -0.055215802 -0.03621776 0.061132476 0.12912293
00000000: 2ca0 f53c a860 ca3c 0093 3a3d 6ee6 43bd
00000010: f4a1 d23c ce7d 3b3d 9f44 883d 6dd2 b83d
00000020: 81ad 9d3d b2a8 da3d 7007 5c3c 4a5b a53d
00000030: 5141 c13c 7126 6a3d 8e8b 56bd 9c61 1fbd
00000040: 5eaa 0e3c 910c d93d 72c0 013d 0529 15be
00000050: 330c 593c 0125 9abd 8114 eb3d 451d 32be
00000060: 7b99 c9bc bf4f ad3c 7e62 a43c f349 97bd
00000070: b067 1e3e 7612 99bc cbbb 8cbb 9adc 9abc
00000080: 3be9 91bd 3957 c6bc 5b51 27bd 88a3 153e
00000090: 9698 3239 f9c6 55bd 7423 56bd 0049 edbb
000000a0: 1db2 91bc 2442 8b3d 5998 c4bd 5f3b e1bd
000000b0: 4d9f f13c 46c2 2b3d 2467 2ebd 99bf 063d
000000c0: 629e d1bd df86 b5bc 3b44 bb3b c5af 063e
000000d0: 3b01 eb3d eb0d d1bd 5c84 97bc 4193 20bd
000000e0: cf76 8cbd 16b7 8f3c a4b4 febd 0c44 843d
000000f0: c51f 943d d4d1 c53b 5309 47bd 37f2 c63c
00000100: 80a8 993d 91cb bcbd 5593 ec3d 4be6 9cbc
00000110: 8938 b43c ee90 993d d884 88bd b365 c03d
00000120: 7b29 bf3d fd3d 703d 5eee 0f3d 3070 9abd
00000130: 889b 9cbb db0e 8ebd d90a 693d 1b2e 2bba
00000140: 5293 19bd 7b34 803d 4659 2d3e b50f 1cbd
00000150: a540 5f3b ecef 363d 5888 fcbd a9cc 0f3d
00000160: 79ad a6bc d569 9b3a 208c 07bd 4db9 36bd
00000170: b0cb bb3d 6f5d 6e3d 21d5 823d 7410 453d
00000180: 0a13 083e b5a7 0a3e 7c50 64bd 7816 b7bc
00000190: aca9 57bd 6fa4 a13c be89 5abd a36b 643d
000001a0: 33b5 75bd 3712 acbd 8428 523c 40bd 3e3d
000001b0: 5c30 b13d f7fd e33d e7a0 4cbd 4436 eebd
000001c0: c6a5 e83c 047a b0bd d0f7 81bc de49 a9bd
000001d0: 8ae5 773d 67b6 803b 2371 083d cc28 74bd
000001e0: 715c 55bd cba1 39bc 5e97 b13d b4b3 9ebc
000001f0: e175 133d c2ec 4abd 269d 5c3c 2215 523d
00000200: a222 8ebd 9d47 523c 8059 2abd 9582 c63c
00000210: 1849 033d 6fac d3bc 6135 343d 52ba 063c
00000220: 0710 ac3d 75e2 d63c 18c1 19bd b104 81bd
00000230: cf57 36bd 934f adbd 604e 8cbd b93a 92bd
00000240: c815 9dbd f2e6 e93c bc4e a03c a742 a1bd
00000250: d6ce dd3d 7b47 9fbd f739 2f3c d946 6cbd
00000260: 80b6 53bd 0ced 963a 2c77 613d b11e b73d
00000270: 866e 973d 89f2 843d 9a01 d83c ddcd 4f3c
00000280: 9799 6ebd b4a1 283d 6605 b83c 819b a8bd
00000290: 1759 823d 74b8 8cbd 6a8a 9bbd cf33 a6bd
000002a0: 4983 6e3c cf05 333d 5171 9b3c 90a2 df3d
000002b0: 0554 4ebd c544 9ebd 4981 b93d 58fe 7bbd
000002c0: 11e5 efbc e85b 99bd 10e7 a7bd eaea ef3b
000002d0: dc7c bf3d 48e1 11bc 70c3 76bd de9a c3bd
000002e0: ede7 94bd 6aa7 7cbc 9e5f 7dbd be08 81bc
000002f0: 29a9 43bd ba99 cb3d e9b3 b2bd 3050 3c3d
00000300: e917 ba3b 4e14 c13c 721b 93bc 0eb8 023d
00000310: b839 41bd dd61 ed3c dabe 2d3d b0ec 41bc
00000320: 04e7 9abd 2edd ee3c f5c5 a43d 0fc4 94bd
00000330: c3ce 993d 44e2 e93c 3d1f 1cbd 256f e33c
00000340: 885e a9bd f3a6 ae3c 90f6 493d 05d9 b73c
00000350: cbf4 b33d f192 813d ec58 91bd de8f c7bc
00000360: 9b3d 5a3c 922b 3dbd 64d3 84bd 653b 633b
00000370: 38ba 21bc c728 fdbc 97c2 1f3d 0e04 1b3d
00000380: 6ff6 1cbc 8943 9b3c 4835 b03b 8cac 853b
00000390: 9ed6 bc3d ec89 aa3d a4f6 96bd 4cfb 6ebd
000003a0: c3d9 a9bd 90f6 623d a00f 0b3d b9aa cbb9
000003b0: 3c46 a43d 9720 cd3d 58ff 07bd 2a98 45bd
000003c0: 378c 983d 1645 66bc 648a 883d 5192 40bd
000003d0: d23a 8e3d 8680 5a3d 1386 4c3d 8dd4 8abd
000003e0: 8777 683d b5d7 31bd de79 99bc d5b7 e63c
000003f0: f729 62bd 1359 14bd 0c66 7a3d cd38 043e

fc2.bias f4 [84]
0.3442101 -0.013567206 0.18069705 0.19649273 0.13649817 -0.0978511 0.03383087 0.14330883
0.044898514 0.3607744 -0.07665389 0.060494386 0.1821909 -0.081141904 0.23064092 0.023485636
-0.011586547 -0.08597406 0.16124307 -0.086812645 -0.061077353 0.035653584 0.032429963 -0.005872699
0.124380104 -0.07264383 0.11496182 -0.08831897 -0.00983089 -0.07785692 0.038522046 -0.008567456
-0.012229574 -0.11019244 0.124945454 -0.00776012 0.005138547 -0.082081966 0.015265611 -0.14226656
0.2998772 -0.18566933 0.057449 0.02990074 0.05232884 -0.06326245 -0.0018429697 0.2298996
-0.11090684 0.23916169 -0.07826395 0.16247337 -0.11436861 0.22148909 -0.06755539 0.20321842
0.10638869 0.18826969 0.058414284 0.023381066 -0.023083245 -0.13615769 -0.11178611 0.1931125
0.0028321429 0.09747846 0.0013153255 0.07208794 0.18553686 0.2195959 -0.07249962 0.105797775
0.009084815 0.023835279 0.22426136 0.2736394 0.23623584 0.056619573 -0.0342039 -0.21141833
0.28479257 -0.049773693 0.3342748 -0.03201571
00000000: 4e3c b03e fd48 5ebc a608 393e 6435 493e
00000010: 2dc6 0b3e 2866 c8bd 3d92 0a3d 8dbf 123e
00000020: 81e7 373d 6cb7 b83e b7fc 9cbd f6c8 773d
00000030: 4090 3a3e ba2d a6bd 222d 6c3e f364 c03c
00000040: 80d5 3dbc 2b13 b0bd e71c 253e d4ca b1bd
00000050: 3f2c 7abd 7e09 123d 48d5 043d c56f c0bb
00000060: ffba fe3d 4ac6 94bd 1a71 eb3d 93e0 b4bd
00000070: be11 21bc 7373 9fbd 4bc9 1d3d 845e 0cbc
00000080: 8d5e 48bc 93ac e1bd 67e3 ff3d 9b48 febb
00000090: 4261 a83b 971a a8bd 9d1c 7a3c 53ae 11be
000000a0: 8189 993e 1a20 3ebe a54f 6b3d 66f2 f43c
000000b0: c456 563d be8f 81bd cd8f f1ba cd6a 6b3e
000000c0: 2023 e3bd cde6 743e da48 a0bd 6b5f 263e
000000d0: 173a eabd 09ce 623e 7b5a 8abd 7d18 503e
000000e0: 50e2 d93d c5c9 403e d143 6f3d a689 bf3c
000000f0: 1319 bdbc ec6c 0bbe 1ef0 e4bd 48bf 453e
00000100: 799b 393b c9a2 c73d 0067 ac3a d8a2 933d
00000110: 60fd 3d3e bfdd 603e ae7a 94bd 81ac d83d
00000120: 7ad8 143c 3442 c33c c5a4 653e 771a 8c3e
00000130: cfe7 713e ede9 673d 6319 0cbd 0c7e 58be
00000140: 55d0 913e 80df 4bbd 1126 ab3e e822 03bd

fc3.weight f4 [10, 84]
-0.30683812 -0.0816536 0.12508292 -0.17423908 0.17053378 0.05306889 0.01384408 0.089100756
-0.1575387 -0.16648974 0.05615257 0.21021813 -0.12126838 -0.068368874 -0.20639682 -0.096996866
0.42668113 -0.0031941182 0.08017467 0.18642494 0.06998511 -0.006252887 0.06524677 0.06541007
-0.10335128 -0.04825244 -0.11791115 0.08075055 -0.030508565 0.31781143 0.18320832 -0.0911114
-0.08978079 0.07668252 0.064778335 0.045484934 -0.08344036 -0.12533936 -0.042027432 0.012472624
-0.12801698 0.020850569 0.019665012 -0.097816736 -0.05776383 -0.04748403 0.06856035 0.1233661
0.16183588 0.18052097 -0.114203 -0.008078187 0.11544435 0.051653303 0.2299202 -0.003386532
-0.21710923 0.060163897 0.00943297 -0.06578865 -0.035224494 0.07336844 -0.035278052 -0.019165577
0.06938424 -0.0012970759 -0.07861525 -0.10755433 -0.06183813 -0.14085437 -0.038249526 0.1286763
-0.0423557 0.0765164 0.1265186 -0.124449946 -0.022978125 0.020455416 -0.021340827 0.19412726
0.38134587 0.074017376 -0.20152007 -0.08767733 -0.20695756 0.022233479 0.044670306 -0.2217135
-0.11553117 0.09985635 0.08496376 0.12052178 0.1386972 -0.1435036 0.0070270947 0.038667396
0.13159892 0.063446365 -0.100857675 -0.2072122 0.24088298 -0.018776927 -0.070104 -0.038917776
-0.038370214 0.12462678 -0.2311218 0.048367042 -0.032323956 0.002041061 -0.18684947 -0.0010426033
-0.012096035 -0.083259635 -0.010819604 0.07526221 0.10669514 0.044346537 0.22077137 -0.041973352
-0.07081585 0.09144571 -0.12897913 0.17000836 -0.22075406 0.21638016 0.012788514 0.030373203
-0.17833333 -0.048476186 0.20217618 -0.08798095 0.081534624 -0.052946843 0.081098564 0.08441685
-0.061930843 -0.18247083 -0.124938495 -0.060923986 0.12899353 -0.34449852 0.08986804 0.058265463
0.10959006 0.22960061 0.021973822 -0.28316697 0.25017157 0.30480358 0.0025413376 0.16766888
-0.14964485 -0.31401873 0.04661421 -0.23761293 -0.08995717 0.06357367 0.07117274 -0.06449788
-0.09953094 -0.21385874 0.124658175 0.07818816 -0.12843879 0.06959229 -0.047003344 0.1442856
-0.049823318 0.13832743 0.14903934 0.11133239 9.3883114e-05 0.094251655 -0.03963534 -0.09679233
-0.2246346 0.11177099 0.0402308 0.035944752 -0.15335962 -0.02935969 -0.038334943 0.15136565
0.101039015 0.018005926 0.02444482 -0.0075055067 0.108913094 -0.10290581 0.1591535 -0.09021621
0.08618056 -0.0214593 -0.016081782 -0.106444 0.15495121 -0.011229842 0.20609848 -0.05487244
-0.21008809 0.17929699 -0.1370833 0.17382492 -0.07732909 0.12895496 -0.18529285 -0.037162274
0.030998252 0.009710921 -0.009085533 0.04191774 0.2500285 0.046576943 0.17129824 0.0074813967
-0.103945225 -0.11421826 0.012096936 0.0037957025 -0.08820537 0.32135528 0.085255735 -0.02116302
-0.23079641 0.23901695 0.11057487 0.033199098 0.030603217 -0.107641704 -0.09057498 0.066399336
-0.13751604 -0.10094024 0.07861588 -0.053768728 0.031852767 0.18261014 0.032673463 0.16972844
-0.057591416 0.020709528 0.10087997 0.12530491 0.26034293 0.0049712136 0.06583407 0.16218057
0.10200747 -0.11816961 0.2901357 0.04737633 0.20905674 0.067826 -0.17782438 0.1009117
00000000: e319 9dbe 013a a7bd bd15 003e bb6b 32be
00000010: 68a0 2e3e c45e 593d 48d2 623c 757a b63d
00000020: d351 21be 497c 2abe 3d00 663d 6c43 573e
00000030: 8e5b f8bd fb04 8cbd b059 53be 4ba6 c6bd
00000040: f375 da3e 6954 51bb 9e32 a43d 2ee6 3e3e
00000050: 5a54 8f3d 05e5 ccbb 19a0 853d b7f5 853d
00000060: d6a9 d3bd 5aa4 45bd 677b f1bd 8b60 a53d
00000070: 19ed f9bc 2eb8 a23e f69a 3b3e 9d98 babd
00000080: fede b7bd ba0b 9d3d 81aa 843d 694e 3a3d
00000090: c8e2 aabd f658 00be f524 2cbd fa59 4c3c
000000a0: e216 03be d0ce aa3c 8518 a13c 2454 c8bd
000000b0: c499 6cbd 9d7e 42bd 5e69 8c3d 5ea7 fc3d
000000c0: 4eb8 253e 7dda 383e 43e3 e9bd 5f5a 04bc
000000d0: 166e ec3d 6a92 533d 3370 6b3e 94f0 5dbb
000000e0: e251 5ebe 6b6e 763d be8c 1a3c 33bc 86bd
000000f0: 8f47 10bd 3142 963d b87f 10bd 2101 9dbc
00000100: 5319 8e3d a502 aaba 0801 a1bd 7245 dcbd
00000110: fb49 7dbd 213c 10be 89ab 1cbd b8c3 033e
00000120: 2c7d 2dbd a1b4 9c3d 188e 013e 9ddf febd
00000130: 9f3c bcbc 1e92 a73c f5d2 aebc 4cc9 463e
00000140: c43f c33e 6c96 973d 475b 4ebe 2c90 b3bd
00000150: afec 53be fc22 b63c 36f8 363d dd08 63be
00000160: 9b9b ecbd 7c81 cc3d 7b01 ae3d 1fd4 f63d
00000170: a406 0e3e 9cf2 12be 8b43 e63b b461 1e3d
00000180: dec1 063e 2bf0 813d 788e cebd 6f2f 54be
00000190: 07aa 763e 12d2 99bc b092 8fbd 3f68 1fbd
000001a0: 162a 1dbd 533c ff3d 31ab 6cbe 851c 463d
000001b0: 2066 04bd 52c3 053b 7855 3fbe f6a7 88ba
000001c0: 732e 46bc 0784 aabd b544 31bc 1323 9a3d
000001d0: fb82 da3d b7a4 353d e411 623e 40ec 2bbd
000001e0: e607 91bd e347 bb3d 1b13 04be ac16 2e3e
000001f0: 5a0d 62be c392 5d3e ea86 513c 39d1 f83c
00000200: 039d 36be f78e 46bd 4607 4f3e 5b2f b4bd
00000210: a0fb a63d cade 58bd 0117 a63d bee2 ac3d
00000220: 32ab 7dbd a2d9 3abe c1df ffbd 6e8b 79bd
00000230: e116 043e 1c62 b0be bc0c b83d c4a7 6e3d
00000240: c170 e03d 6c1c 6b3e 7202 b43c 43fb 90be
00000250: 7d16 803e 370f 9c3e 928c 263b 64b1 2b3e
00000260: 803c 19be 10c7 a0be 8bee 3e3d ce50 73be
00000270: 773b b8bd ea32 823d 03c3 913d 7717 84bd
00000280: e1d6 cbbd c9fd 5abe c94c ff3d 1d21 a03d
00000290: 7585 03be 6786 8e3d 9486 40bd 9bbf 133e
000002a0: 8913 4cbd b5a5 0d3e c59d 183e 3c02 e43d
000002b0: 1de3 c438 0307 c13d ab58 22bd 0f3b c6bd
000002c0: 9d06 66be 30e8 e43d 0dc9 243d ce3a 133d
000002d0: 4e0a 1dbe bc83 f0bc 1a05 1dbd 99ff 1a3e
000002e0: 8bed ce3d 2a81 933c 8140 c83c c1f0 f5bb
000002f0: d40d df3d 48c0 d2bd 23f9 223e 47c3 b8bd
00000300: 6f7f b03d 6acb afbc f1bd 83bc 50ff d9bd
00000310: 88ab 1e3e 5ffd 37bc 7b0b 533e ecc1 60bd
00000320: 5521 57be a199 373e 915f 0cbe 29ff 313e
00000330: b75e 9ebd c50c 043e 69bd 3dbe 7837 18bd
00000340: 0cf0 fd3c 8e1a 1f3c 7ddb 14bc f0b1 2b3d
00000350: bc03 803e 77c7 3e3d ce68 2f3e 8126 f53b
00000360: 3ce1 d4bd 43eb e9bd 3a32 463c 52c1 783b
00000370: 04a5 b4bd ae88 a43e 8f9a ae3d 125e adbc
00000380: e555 6cbe dcc0 743e 1475 e23d c7fb 073d
00000390: 99b3 fa3c 4173 dcbd 607f b9bd 60fc 873d
000003a0: 01d1 0cbe c2b9 cebd 5d01 a13d 993c 5cbd
000003b0: 0c78 023d 27fe 3a3e 9cd4 053d 4bcd 2d3e
000003c0: fae4 6bbd 07a7 a93c 289a ce3d ee4f 003e
000003d0: ab4b 853e 90e5 a23b 03d4 863d aa12 263e
000003e0: 4be9 d03d e902 f2bd ab8c 943e af0d 423d
000003f0: f812 563e 5ce8 8a3d 9817 36be cbaa ce3d

fc3.bias f4 [10]
-0.25853837 -0.52615607 -0.016468199 0.23462638 0.4369737 -0.043919265 0.32656294 -0.27138466
0.1962079 -0.27487072
00000000: 245f 84be 2ab2 06bf 51e8 86bc e641 703e
00000010: 04bb df3e b0e4 33bd 4233 a73e eef2 8abe
00000020: b9ea 483e dbbb 8cbe
